notebooks/T10-PaddleOCR/models/cls_fixed.onnx (onnx, 538025 bytes, 108 tensors)

conv2d_14.b_0 f4 [8]
000000 a0 c6 e5 bd cf 2a 3e be 06 66 20 3e 32 f6 cc 3e
       -0.11219525 -0.18571018 0.15663919 0.40031582
000010 10 b7 79 3e df 41 1f 3e 71 96 f9 3d 80 e0 b7 3e
       0.24386239 0.15552472 0.121868975 0.35913467

conv2d_14.w_0 f4 [8, 32, 1, 1]
000000 24 d7 1d 3d 1d ba c1 3c 4f cb ed be f1 1a ad be
       0.038535252 0.023648316 -0.46444175 -0.33809617
000010 74 76 90 bd 96 4b ca 3d fe 4f 9c 3b 46 9a 5d 3c
       -0.07053843 0.09877698 0.004770278 0.013525551
000020 64 6f 02 3f fe 24 5e bd e5 29 8b 3e 48 de 18 3f
       0.5095122 -0.054234497 0.271804 0.59714174
000030 c4 fd 8f 3d a0 6f 08 3f ab 94 84 be c4 68 12 3e
       0.07030824 0.53295326 -0.25894675 0.14297777
000040 bb bd 4b 3e 30 6b 19 3f 6a 17 0a bf bc f4 94 3e
       0.19896595 0.5992918 -0.5394198 0.29092968
000050 54 17 83 bd 33 61 c5 be e1 8f 00 3e 94 ca 0e be
       -0.06400934 -0.3855072 0.12554885 -0.13944465
000060 15 97 9b 3e 67 54 2c 3e b2 e5 ae be 22 ea 05 bf
       0.30388704 0.16829072 -0.3415962 -0.52310383
000070 5b 35 9b 3e 7e 1b d7 3e 29 36 ca 3d 27 cf 07 3f
       0.30314144 0.42013162 0.098736115 0.53050464
000080 b1 b0 03 3e 02 03 55 3e c2 f6 5a be fc 00 b4 be
       0.12860371 0.20801929 -0.21383193 -0.35157
000090 78 4f 99 be 9b 6f e5 3d 12 c1 13 3f 4d 31 21 3e
       -0.29943442 0.11202928 0.57716477 0.15741463
0000a0 a2 b4 e6 3a b8 fd f8 3e be 0b 6e be 34 f4 85 3f
       0.001760144 0.48631072 -0.23246667 1.046515
0000b0 97 52 d5 be fa 8b 12 3e 5d 60 c3 bd 89 bb b9 3e
       -0.41664574 0.1431121 -0.09539864 0.3627589
0000c0 f3 99 da 3e ab 86 f1 3e 26 0a 66 be 91 c9 07 be
       0.4269558 0.47173056 -0.22464809 -0.13260485
0000d0 b2 43 79 3d 72 a2 ae bd f5 ad bf 3e d6 58 8f 3d
       0.060855575 -0.08527078 0.37437406 0.06999366
0000e0 e0 b9 b1 3e 8e 3d 67 bd 9f 12 ab be 36 90 1e 3e
       0.34712124 -0.056455187 -0.33412644 0.154847
0000f0 75 2e 28 3d f2 dd 1b 3d 84 a7 4b 3e 34 2e d1 bd
       0.04105993 0.03805346 0.19888121 -0.10213891
000100 b3 1c 52 be 19 9d aa 3d 19 4a 9e 3e 44 fd 0c 3e
       -0.2051876 0.08330745 0.30915907 0.13768488
000110 fe a5 a6 3d ba 13 f6 3d 17 2d 39 bd ed 3c dc be
       0.08137129 0.12015481 -0.045209017 -0.43015233
000120 84 81 21 be 61 04 44 bc e1 c4 21 3d e0 69 48 be
       -0.15772063 -0.011963935 0.0394944 -0.19571638
000130 d0 27 82 be 0c 07 e0 be 8e d9 4d 3e 9c 62 cf 3c
       -0.25421 -0.43755376 0.20102522 0.025315575
000140 26 62 3b be 5d e9 af 3d 7a 6d 3f be ad e3 23 bd
       -0.1829916 0.085894324 -0.18694106 -0.04001205
000150 99 b2 80 bf 8f af f5 3d 35 a6 94 be 82 b5 c6 be
       -1.0054504 0.11996376 -0.29033056 -0.38810354
000160 b0 58 fd 3e d7 4b 1d bf 2f 6e 67 be 32 aa f4 bd
       0.49481726 -0.6144385 -0.22600625 -0.11946525
000170 3c e4 54 3e bc b5 d7 be d4 8f 4b 3e ba 51 24 3e
       0.2079019 -0.4213084 0.19879085 0.16046801
000180 8e 43 06 3e 9f b5 f5 3e 5e 16 d1 3e 3d ec be 3e
       0.13111708 0.47990128 0.40837377 0.3728961
000190 fe 36 82 3e 8e de 50 be e5 7e 14 bf a4 4c 9f 3e
       0.2543258 -0.20397398 -0.58006126 0.3111316
0001a0 38 36 37 be 43 42 97 be 16 33 33 3f 74 7b 2c be
       -0.17891777 -0.2954274 0.69999826 -0.16843969
0001b0 dc 6b 78 be 82 d3 ef bd c8 0f 0a 3f 7f 15 e3 3e
       -0.24259895 -0.11710264 0.5393033 0.44352338
0001c0 90 41 d8 bd 54 bf 7d 3d 47 df 96 3e 2f d8 75 be
       -0.1055938 0.061950043 0.29467222 -0.24008249
0001d0 ca b4 51 be 70 5a bf 3c ae 9b 47 be ae b5 4c be
       -0.20479122 0.023358554 -0.19492981 -0.1999118
0001e0 08 c2 1d be ff 50 e8 be 59 72 38 be 25 9a 18 3d
       -0.15406048 -0.45374295 -0.1801237 0.03725638
0001f0 46 a1 52 3e 3f 08 a9 be a6 68 0e 3c 66 6b b2 3e
       0.20569333 -0.33014104 0.008691942 0.34847564
000200 d4 49 4c 3e d0 0f 0b bd cd 06 3e 3f 34 10 08 3f
       0.19950038 -0.033950627 0.7422913 0.53149724
000210 c7 84 96 be db 22 88 3d 6c 2d fc be ea 92 72 3e
       -0.29398176 0.06647273 -0.49253404 0.23688856
000220 13 f8 84 3d ef be 0c 3e a9 e4 5a 3f d0 94 99 bd
       0.06492629 0.1374471 0.8550516 -0.07499087
000230 d9 50 7a be ee 23 07 bf ef 9d 5e 3e a9 e6 30 3c
       -0.24444903 -0.527892 0.21739934 0.010797181
000240 04 4f 1c bd 49 16 e8 be 91 e4 51 bd 2f 5f a0 be
       -0.038161293 -0.45329502 -0.05124337 -0.3132262
000250 95 71 88 bf a9 cc 42 bb 42 0a 00 bf 67 54 c8 bd
       -1.0659662 -0.0029724038 -0.5001565 -0.097817235
000260 1b 98 82 3e dc 3b cb be fb b9 88 bd 55 a6 bc be
       0.25506672 -0.39694107 -0.06676098 -0.3684565
000270 82 bd 50 3e d2 b0 a2 be 29 36 b3 3d 9d 72 b4 3e
       0.20384791 -0.31775528 0.087505646 0.35243693
000280 54 9a 00 be dc 6a 6f bd b9 af 93 3e 65 f5 c3 3e
       -0.12558872 -0.05845152 0.28845003 0.3827316
000290 d7 74 9d 3d 4a 40 50 3d 37 1b 61 3e ab 55 f6 be
       0.07688301 0.05084256 0.21983038 -0.48112234
0002a0 c3 cc b1 3d 33 5e 0c 3e 96 1d 9d bd 56 58 c4 be
       0.08681633 0.13707809 -0.07671659 -0.38348645
0002b0 68 8b c3 3e 7e 55 0a bf fc 1a 91 bd d6 00 6f 3e
       0.38192296 -0.540367 -0.07085225 0.23340163
0002c0 3b b3 8f 3e 0b 72 84 3d 1a 84 bf bd 36 e5 08 be
       0.2806643 0.064670645 -0.09351368 -0.13368687
0002d0 6e 1f 1d bf b5 35 24 bc 2c 12 fa be a4 94 6e bd
       -0.6137608 -0.01002257 -0.4884199 -0.058247223
0002e0 de 93 d4 3e 33 03 fd bb 67 7c 1c be 1d 98 7b 3e
       0.41519064 -0.0077213286 -0.1528183 0.24569745
0002f0 1a c6 19 3e c9 16 ac 3c c7 c9 67 be c5 6a 22 bc
       0.15016976 0.021006959 -0.22635566 -0.009913151
000300 0d 84 0a 3d 89 ed f3 bc bd ff c8 3e a1 95 25 3f
       0.03381734 -0.029776352 0.39257613 0.6468144
000310 c7 97 2f be 2c 3a cb be f0 19 0b bf bc 04 b9 3e
       -0.17147742 -0.3969282 -0.5433645 0.36136425
000320 ff 51 45 bf 25 03 5c 3e 11 5b 2b 3f bd 73 eb be
       -0.7707824 0.21485575 0.6693583 -0.4598674
000330 6e 36 6a 3e 4c c3 0d bf 72 81 d4 be da 8a 59 be
       0.22872326 -0.55376124 -0.4150501 -0.21244374
000340 98 4b 61 bf ff 43 0a bf 45 c3 0b 3f ad 70 98 bd
       -0.8800597 -0.54010004 0.5459483 -0.07443366
000350 c4 a6 05 3e 30 ff 2f bc 09 81 09 3d 2c 93 b5 3e
       0.13051897 -0.010741994 0.033570323 0.35463846
000360 01 83 1d 3e e4 ef bf 3e 7e 50 f9 3e 4c db 1c be
       0.15382005 0.3748771 0.48694223 -0.1531803
000370 17 08 47 3e 3a 5f 4f be 13 0c bd bd 71 ee 6c 3e
       0.1943668 -0.2025117 -0.092308186 0.23137833
000380 3b 09 3e bc 08 07 81 3e c9 2a 66 3f 48 be 13 3f
       -0.01159888 0.25200677 0.89909035 0.5771222
000390 b7 37 08 bd de 84 e5 be 79 f7 06 bf 06 3a 27 3f
       -0.03325626 -0.44827932 -0.52721363 0.6532291
0003a0 59 81 ed be ab 6b 20 3f e7 4b f1 3e c8 9c bd be
       -0.46387747 0.6266429 0.4712822 -0.37033677
0003b0 ec d2 07 be 66 14 0c c0 9f 24 ac be 60 33 a4 be
       -0.13264054 -2.188745 -0.3362169 -0.32070446
0003c0 9b d1 00 be 5c d9 b8 bf 60 a5 3c 3e c0 ff 67 be
       -0.12579958 -1.4441333 0.1842246 -0.22656155
0003d0 23 15 f9 be 63 e9 47 be cc ea f0 be f6 e3 08 bf
       -0.4864894 -0.19522624 -0.47054136 -0.5347284
0003e0 a6 03 b6 3e f9 4c 40 be 81 68 f0 3d c7 18 1d bd
       0.3554966 -0.18779363 0.117386825 -0.038353708
0003f0 66 c6 6b 3e a5 07 98 bf cd 2a 2e bd 3d b9 2b be
       0.23024902 -1.1877333 -0.042521287 -0.16769882

conv2d_15.b_0 f4 [32]
000000 aa 39 5f 3d 59 e2 58 3e e8 0a f5 bd f6 d9 04 be
       0.054498352 0.21180095 -0.11964971 -0.1297377
000010 87 9b 01 3e a1 79 57 3d 12 8f 78 be 61 c8 36 3e
       0.12656985 0.05260623 -0.24273327 0.17849876
000020 bc b7 1f be 1b 38 52 3e 69 4a dd bd e9 96 89 bc
       -0.15597433 0.20529215 -0.10805208 -0.016795592
000030 0e 81 7e 3c 6b 02 6a be b2 42 18 3e 03 2c 14 be
       0.015533699 -0.22852485 0.14869192 -0.14469914
000040 33 80 31 3d d7 bc 53 be b7 db 32 be f9 30 ac bd
       0.04333515 -0.20677505 -0.17466627 -0.08407778
000050 1e 96 3e be 70 ac 84 3e a8 e8 6d 3a f1 35 55 be
       -0.18611953 0.2591281 0.0009075501 -0.20821358
000060 ef 78 18 3f d0 1e 33 be 6a f3 ad bd 83 7f 8b 3d
       0.5955953 -0.17492223 -0.08493693 0.0681143
000070 5c e6 51 3d 3e ac 68 bd f4 6f 6c be 62 2e 7a 3e
       0.05124508 -0.056804888 -0.23089582 0.24431756

conv2d_15.w_0 f4 [32, 8, 1, 1]
000000 1c b3 31 be 86 9b 5a be da 35 e5 3e 1e 06 23 be
       -0.17353481 -0.2134839 0.44767648 -0.15920302
000010 3e 0f 88 bd 17 c0 0f 3f f9 f8 5b be 08 30 7a 3e
       -0.06643532 0.5615248 -0.21481694 0.24432385
000020 d3 a9 42 be fc c0 c8 be 57 b6 8e 3d 13 cc 9d 3d
       -0.19010095 -0.39209735 0.06968372 0.0770494
000030 65 f8 27 3f ea eb b1 3e 05 ea 32 3e 62 b7 43 3f
       0.65613395 0.347503 0.17472084 0.76451695
000040 23 9e ef be fe c0 d2 be 05 ba 88 3e 01 88 67 be
       -0.46800336 -0.41162866 0.26704422 -0.22610475
000050 5e 92 9b bd df 13 0e 3e 87 00 af 3e fb 28 20 3f
       -0.07596277 0.13874768 0.3418009 0.6256253
000060 9f 46 07 be 31 b2 d5 be ec 7d 03 3f e9 02 a2 3e
       -0.13210534 -0.41737512 0.51364017 0.31642845
000070 be c1 30 3d f9 83 8f 3d 8f da 26 3e 4e bb bc 3e
       0.043153517 0.07007594 0.16294311 0.36861652
000080 61 61 a0 be 1f 95 97 be eb 81 36 be 1c 7a aa 3d
       -0.31324294 -0.29605958 -0.17822997 0.08324072
000090 5f d3 ae 3e 39 c6 a0 bd 47 88 24 3f ab 6b 81 3f
       0.34145638 -0.07850308 0.6427044 1.0110983
0000a0 a6 2c f0 be a2 f3 35 be bc ca ce bc 20 27 e8 3e
       -0.46909064 -0.1776872 -0.025243156 0.4534235
0000b0 27 5f 9c 3e d2 f6 c3 3d 69 e3 94 3e 00 ca 50 3f
       0.30541345 0.095685616 0.2907975 0.8155823
0000c0 e9 02 24 bb 40 42 c5 be 7c e5 08 be f1 cc 0b 3f
       -0.0025026149 -0.38527107 -0.13368791 0.5460959
0000d0 ae 48 8e 3e 9c 6a 09 be e9 15 92 3f 28 7b 0d 3f
       0.27789825 -0.13419574 1.1412936 0.55266047
0000e0 b4 8a ab 3d 4e 5e a5 be 04 02 d0 3e 50 13 2c be
       0.08376065 -0.3229851 0.40626538 -0.16804242
0000f0 fd df 89 3e bd e6 c7 3e dc ce 81 3d 8d 47 09 3f
       0.26928702 0.39043227 0.063382834 0.536248
000100 5b 6d 5d be bd 43 f2 be f1 b6 bd 3e cb 06 6f be
       -0.21623747 -0.47317305 0.37053636 -0.23342435
000110 16 1f 01 3f b8 73 7f 3e c8 93 ca 3e 00 4e 59 3f
       0.5043806 0.24946487 0.39565873 0.84884644
000120 42 ca 92 bd d8 d0 87 bd c4 07 a0 3d 8c c8 9d 3e
       -0.07167484 -0.06631631 0.07813981 0.30817068
000130 c3 41 0d 3f c7 60 7c 3e 72 3e ae 3e 2c 00 b8 3e
       0.5517847 0.24646293 0.34032017 0.3593763
000140 5d f2 c4 be 96 98 1c bf 3a 52 7e 3e e3 b6 14 be
       -0.38466159 -0.6117033 0.24836054 -0.14522891
000150 b6 11 c7 3e 6f 22 8b be 9e 3e 9e 3e dc 90 b6 3e
       0.388807 -0.27174708 0.30907148 0.35657394
000160 2a bc ff bc 6d 3b c2 be e4 29 94 be b2 e7 90 be
       -0.031217653 -0.37935963 -0.2893821 -0.2830177
000170 2c fe 11 3e 92 63 29 be 7c 40 be 3e b7 29 f5 3e
       0.14257115 -0.1654189 0.37158573 0.47883388
000180 26 4b 2d be ac 05 20 be 8d 97 ba be ab 50 3c 3e
       -0.16923198 -0.15627164 -0.3644375 0.18390147
000190 b0 0e a8 3e 1c e8 52 be 5d db 15 3f 6b cc ce 3e
       0.32823706 -0.20596355 0.58537847 0.40390334
0001a0 a2 3b 82 be 8f ce 73 be 6d ed e3 3e 5c 56 47 bd
       -0.2543612 -0.23809265 0.4451708 -0.048666343
0001b0 9d 50 83 3e f7 93 64 3d ec aa c6 3e 73 44 7c 3f
       0.2564744 0.055805173 0.38802278 0.98541945
0001c0 28 f8 43 be 7f 86 c2 bd ca bd 3c 3e 59 c2 3b 3e
       -0.19137633 -0.09498309 0.18431774 0.18335856
0001d0 10 5d 3b 3e bb 7f 76 bd 38 47 6b 3f a4 73 41 3f
       0.1829722 -0.060180407 0.91905546 0.7556708
0001e0 2c eb 3f be f8 84 60 be ee db b7 bd 8a 16 64 3d
       -0.18742055 -0.21925724 -0.08977495 0.055685557
0001f0 b1 2f ad 3e 60 ce 0f bf df f4 2b 3f 00 6a 84 3e
       0.33825448 -0.5617428 0.6717052 0.25862122
000200 76 c2 cb bd da 52 e7 be 49 83 db be f1 f5 97 3e
       -0.099492 -0.45180398 -0.428736 0.29679826
000210 af 25 02 3e 1f 19 5f be 02 d8 4b 3f 66 70 f3 3e
       0.12709688 -0.21786927 0.79626477 0.4754669
000220 b8 35 dd be 31 c5 92 be 49 3b 0d 3c 8e 75 32 be
       -0.43205047 -0.2866607 0.008620092 -0.17427656
000230 54 d3 4d 3e 6b 1c da 3d 3b 13 3d be 0a 75 61 3f
       0.20100147 0.106499515 -0.18464367 0.8806921
000240 b6 c9 b7 3d 33 22 bf be 35 88 8e 3e 88 c9 47 3d
       0.0897402 -0.3733078 0.27838293 0.04877618
000250 54 b8 05 3f de b6 02 3e 5e 4c 5c 3e 11 b7 0f bd
       0.5223439 0.12765071 0.21513507 -0.035086695
000260 36 52 d4 be 35 ec 79 be c7 03 de 3d 61 3a f2 3e
       -0.41468972 -0.24406512 0.10840564 0.47310165
000270 20 a6 27 3f 00 3c 4a 3e 27 a6 a4 3d 42 5e 3c 3f
       0.6548786 0.1974945 0.080395035 0.73581326
000280 cd 2a 00 be 75 92 08 bf cb 7d 13 3f 98 6b 22 bd
       -0.12516327 -0.53348476 0.5761382 -0.03965339
000290 a3 eb 37 3f e3 33 55 be 81 da 90 3e c7 40 29 3f
       0.7184393 -0.20820574 0.28291705 0.6611447
0002a0 5d d0 41 3b 5d f4 cf be ed e2 2e bd c8 28 d1 3e
       0.0029573657 -0.40616122 -0.042696882 0.40851426
0002b0 e5 26 0c 3f 50 32 a5 3d 2b e8 e4 3e 8e 5f e9 3e
       0.5474685 0.08066237 0.4470838 0.45580715
0002c0 dc 20 ed be c1 95 08 be 9a 2d d2 3e 42 c7 89 3e
       -0.46314132 -0.13338377 0.41050416 0.26909834
0002d0 31 53 bf 3e f2 48 6d 3e 9f cb 00 3d 13 aa 66 3f
       0.37368158 0.23172358 0.03144419 0.9010326
0002e0 41 a2 01 bf ef b5 9a be 37 ab 8d bd 8b f8 c7 3e
       -0.50638205 -0.3021693 -0.06917422 0.3905681
0002f0 32 38 0c 3f 6f 2c 1a bc 4d b8 49 3d 5d eb 85 3f
       0.5477325 -0.009410008 0.04924803 1.0462452
000300 dd 6a 4e 3e d3 0c ee bd f7 cf 78 be 4b f1 16 3f
       0.20157953 -0.1162354 -0.24298082 0.58961934
000310 1d 81 2b 3e 54 6a 87 bd ec b7 19 be 9e db 74 bb
       0.16748472 -0.06612077 -0.15011567 -0.0037362347
000320 64 aa 9e be 0b 0a 50 be 1f 42 78 be da 84 fd 3e
       -0.30989373 -0.20316331 -0.24243973 0.4951542
000330 5e 54 a9 3e bb ae 4b 3e 60 f6 83 bd 0a 57 59 3f
       0.3307218 0.19890873 -0.06443477 0.84898436
000340 eb a6 ec bd e2 f7 b4 be 0c 07 ec be cd 80 2c bd
       -0.115552746 -0.3534537 -0.46099126 -0.04211502
000350 96 5e 33 3f b4 15 0b be 5c ee 8c 3e 6c e4 c4 3e
       0.700662 -0.13582498 0.27525604 0.38455522
000360 c1 69 f7 bd 9e e9 7c be f8 e0 8a be ad 04 b7 3e
       -0.12080718 -0.24698493 -0.27124763 0.35745755
000370 06 3e ad 3e 2e 25 e1 be dd ab 1b 3f 1c d0 9d 3e
       0.33836383 -0.43973678 0.6080912 0.30822837
000380 71 b1 eb be 88 1a 24 bd 26 e0 bb be 9f e3 e5 bd
       -0.46033815 -0.040064365 -0.3669445 -0.11225056
000390 a4 04 ff 3c e7 b3 68 be e2 e2 07 3f 7d 6e b6 3e
       0.031130143 -0.22724877 0.5308057 0.3563117
0003a0 7a 15 71 be f7 7a 49 bd 91 cd 37 3e 04 2b 19 3f
       -0.23543349 -0.049189534 0.17949511 0.5983126
0003b0 9b ae 12 3f da 93 97 3e 11 6f 03 3f 22 4e 03 3f
       0.57297677 0.2960499 0.5134135 0.51291096
0003c0 d4 ec 2d be 12 69 f4 be b6 93 84 be fb a9 48 3e
       -0.16984874 -0.47736412 -0.25893945 0.19596092
0003d0 a9 db 73 3e 03 f4 1b be e2 fe 78 bc 4e 98 00 3f
       0.23814262 -0.15229802 -0.015197488 0.502324
0003e0 7f b8 02 bf 7a 6b 99 3e 06 94 03 3e f8 1b 11 3e
       -0.5106277 0.2996481 0.12849435 0.14170825
0003f0 54 ad bd 3c a1 be d4 3e 92 a0 ab 3e d5 c6 78 bd
       0.023153938 0.41551688 0.33520943 -0.060736496

conv2d_19.b_0 f4 [22]
000000 27 13 6d 3d ba 92 aa 3d 9d a8 bf 3d 38 38 1e 3d
       0.057879593 0.08328767 0.09358332 0.038627833
000010 53 2c d8 bd dd dc cc bc c7 e6 e1 3d 38 4f b5 3d
       -0.10555329 -0.02500766 0.110303454 0.088530004
000020 9c ae 45 3c e8 26 2e bd 87 c2 30 3e fa a6 d7 bb
       0.012065556 -0.042517573 0.17261706 -0.0065811845
000030 90 c2 00 3e 94 aa f0 bd c9 7f 96 bd c5 f9 7c 3d
       0.1257422 -0.11751285 -0.07348592 0.061761636
000040 fc f1 cf 3d b5 b1 4d 3b b5 4a 80 3e 9c bc 55 3d
       0.10153577 0.003138644 0.25056997 0.052181825
000050 a5 01 35 3d dc e9 c8 3d
       0.04419102 0.0981023

conv2d_19.w_0 f4 [22, 88, 1, 1]
000000 9c 90 e0 be 70 7f cf 3d 40 2a b6 be 50 32 97 be
       -0.43860328 0.10131729 -0.3557911 -0.29530573
000010 7f 2f 7f 3e f8 e2 eb be bf 22 8b be 5e 92 b7 3c
       0.24920462 -0.460716 -0.27174947 0.02240866
000020 a6 11 0f bf 02 2f 11 be 24 10 58 3e be 17 78 3d
       -0.55886304 -0.14178088 0.21099907 0.060569517
000030 42 f9 9a 3d 3b fa 27 bf 92 43 41 bd bb 56 43 3d
       0.075670734 -0.65616196 -0.04718358 0.047690134
000040 61 fa d3 bd 5d bb 99 3e 34 90 65 3d 51 cb 17 be
       -0.1035049 0.3002576 0.056045726 -0.14823653
000050 2e 4f 73 be 5f 61 6c be 3e d6 db 3e 52 66 f0 3d
       -0.23760673 -0.23084019 0.4293689 0.11738266
000060 26 4d c2 be 8a 8d 41 be e4 23 06 3e 71 7a 54 be
       -0.37949485 -0.18901649 0.13099629 -0.20749833
000070 7b f6 48 be 94 34 70 3e f2 7b 6a bf 7e a8 3b 3c
       -0.19625275 0.23457557 -0.91595376 0.011453746
000080 9b ca a8 bd 7e c2 48 3e 45 f2 bf be 9c 3b b7 3d
       -0.08241769 0.19605443 -0.37489524 0.089469165
000090 c3 6a ed 3d f1 0c 07 b9 b3 c9 83 3e b4 b6 a2 3e
       0.11592629 -0.00012879424 0.25739822 0.31780016
0000a0 e6 69 ac 3e fd 69 07 3e 1d 12 02 be dd 2a 54 3e
       0.33674544 0.13224025 -0.12702222 0.20719476
0000b0 d9 3f 66 3c ff 9d 14 3e 45 28 11 3c 5b 39 46 bd
       0.014053308 0.14513396 0.008859699 -0.048394542
0000c0 e4 56 aa bb 18 0e 46 3c 54 9b a1 3e e1 2f 84 be
       -0.0051983465 0.012088321 0.31563818 -0.2581778
0000d0 b2 bd 17 3f 9b 49 02 3f 63 97 a2 be 1a 7a 18 3e
       0.5927383 0.50893563 -0.31756124 0.14890328
0000e0 7f 99 88 3e b9 53 73 be 3b 24 8b 3d 31 01 0b 3f
       0.26679608 -0.23762406 0.0679402 0.5429869
0000f0 22 3a 01 be f7 7e 84 be 00 5a 70 3d b3 59 0f bd
       -0.12619832 -0.25878116 0.05867958 -0.034997653
000100 c2 c7 5c bf e3 bb 6c 3b 60 ad ce 3d 40 cc 80 be
       -0.86242306 0.0036122731 0.100916624 -0.2515583
000110 b6 fe ed 3e 91 fd 20 3d 8c 76 e0 bc 9b a2 ac be
       0.46483392 0.03930432 -0.027400278 -0.33717808
000120 00 30 e8 3d c7 2b 8b bd 2a d0 65 bd 5e cd 98 3e
       0.1133728 -0.06795459 -0.056106724 0.29844183
000130 a4 09 95 3e 7b c6 c9 be e8 e2 2f bc 44 9c 9d 3e
       0.29108918 -0.3940924 -0.010735251 0.30783284
000140 7a 77 82 be 2e 46 a7 be c3 1d e9 3e 2a 54 c2 be
       -0.25481778 -0.3267073 0.4553052 -0.37954837
000150 3e 27 7d 3b d5 c2 85 3e d3 76 ce bd eb 31 f2 bd
       0.0038628126 0.26125208 -0.10081258 -0.11825927
000160 d6 50 25 be 2b e2 ba be 04 02 13 bd 45 d7 25 3b
       -0.16144118 -0.36500677 -0.035890594 0.0025305313
000170 a4 ea d1 bd c7 b9 8a be e2 35 92 bd bf 6b 3d be
       -0.10249832 -0.27094862 -0.071391836 -0.18498133
000180 bb e9 99 be 26 59 0b be 97 d7 86 3e f1 6e 4b be
       -0.30061135 -0.13608226 0.26336357 -0.1986654
000190 a2 c8 ba 3e 02 41 d3 3d 0b fe 26 3e 53 a9 42 3e
       0.36481196 0.10315134 0.16307847 0.19009905
0001a0 20 9d 0d be 09 ac f8 3d 93 22 dc 3d f7 14 a2 3c
       -0.1382947 0.12142188 0.10748782 0.019785387
0001b0 22 23 43 3e fe bc e5 3e 3c d7 a2 bd cb 16 9b 3e
       0.19056371 0.44870752 -0.07951209 0.30290827
0001c0 a4 e0 85 bd 95 28 88 bd 68 f0 9a 3d 2a 0a 6f 3e
       -0.065369874 -0.066483654 0.07565385 0.23343721
0001d0 6f 2a 48 be bd 7f ee 3d 1a af b6 be e2 4c c6 bd
       -0.19547437 0.11645458 -0.35680467 -0.09682633
0001e0 45 52 fb 3e a5 1b a9 3e 82 cc ea bd f9 63 89 3e
       0.49086204 0.33028904 -0.11464788 0.26834086
0001f0 47 e4 55 3b 6f 37 64 be 8e db c7 bd 3b 36 f9 3b
       0.0032637285 -0.22286771 -0.097586736 0.0076053417
000200 43 8b 33 3f 17 47 3c 3e b2 36 3f ba 60 b7 ae 3c
       0.7013437 0.18386494 -0.0007294222 0.021327674
000210 fa eb 57 be fd 9a 90 3e 56 19 5f 3c 92 89 ad 3b
       -0.21086112 0.28243247 0.01361688 0.0052959407
000220 b4 85 db 3e d2 0b ad 3c 6b d3 bd 3e 08 d2 5a be
       0.42875445 0.0211238 0.37075362 -0.21369183
000230 2b b8 75 3e 51 45 11 bf 87 bc 2a bf 76 77 72 3e
       0.23996036 -0.56746393 -0.6669392 0.23678383
000240 c6 61 4b 3e b0 76 9d 3d 45 f1 07 ba 59 a9 ee 3e
       0.19861516 0.076886535 -0.0005185793 0.46613577
000250 71 96 6e 3d a8 18 34 3e b0 e7 53 3e 5b 92 de 3e
       0.05824894 0.1758753 0.2069385 0.43471035
000260 4b 1c ad be b4 87 c6 3e a3 63 c1 be a5 aa 94 be
       -0.33810648 0.38775408 -0.3777133 -0.2903644
000270 f5 56 7c bd b5 61 58 3e 85 12 e9 bd 9e 8f 33 bd
       -0.061606366 0.21131022 -0.113804854 -0.043838136
000280 33 29 08 3d 23 a1 28 bd e3 dc 45 3b c2 09 a6 be
       0.033242416 -0.041169297 0.0030191473 -0.3242932
000290 8a c5 d5 3e 04 75 9a be 22 8f 9e be 48 e2 f4 3c
       0.41752273 -0.301674 -0.30968577 0.029893056
0002a0 ea 1c 36 be 0b 54 a4 3e 4d e5 1f 3e d1 e2 a8 3e
       -0.17784467 0.3209537 0.15614815 0.32985547
0002b0 60 00 7d be c4 25 7c 3e 27 fc 13 be ac 75 b1 be
       -0.24707174 0.24623781 -0.14451657 -0.3466009
0002c0 d9 79 c3 3d b5 df 2f 3f 63 f7 c6 be 60 a8 97 be
       0.09544725 0.68700725 -0.38860616 -0.29620647
0002d0 61 e2 45 3b 72 9a b6 3e 91 88 52 bd b8 b4 4e be
       0.0030194747 0.35664707 -0.05139977 -0.20186126
0002e0 8a f4 9f 3e 18 54 16 bf ec 34 1f 3e 22 de 73 be
       0.31241256 -0.58722067 0.15547532 -0.23815206
0002f0 ae a0 bc be cc 2a 8f 3e 3b 1a b8 3e 25 a7 0a bf
       -0.3684134 0.2796234 0.35957512 -0.5416129
000300 42 ac 1b bd 40 12 89 3e 96 ac d0 bd 61 0a a2 be
       -0.038006075 0.26771736 -0.10189168 -0.31648543
000310 93 f0 18 be 37 ca 36 bf 06 0a cb 3e 73 4a c7 be
       -0.14935522 -0.71402305 0.39656085 -0.38923988
000320 b7 11 44 3f 6a f2 ca be d0 74 1e be 98 10 03 bf
       0.7658953 -0.39638072 -0.15474248 -0.51197195
000330 86 70 2d be dd 56 92 3e 9a 40 cf be 62 de 90 be
       -0.16937456 0.28581896 -0.40478975 -0.28294665
000340 70 44 9f be 7c bd ca 3d 13 93 a7 bd 41 a2 36 3e
       -0.311069 0.098994225 -0.08182349 0.17835332
000350 17 cf 7e 3e 03 9b 2c 3d 52 4a a2 bd f2 b5 1a 3e
       0.24883686 0.04214002 -0.07924332 0.15108469
000360 5b c6 39 be a3 06 b0 3e b4 44 83 3c c6 04 9a be
       -0.18142073 0.34380063 0.016023971 -0.30081767
000370 e6 49 a8 be 00 55 c9 3e b3 0c af be 86 5c 06 be
       -0.3286888 0.39322662 -0.34189376 -0.13121232
000380 0e ee b6 3e ba 11 14 bf 6d bd 73 3e 1d 56 a7 3d
       0.35728496 -0.5783955 0.23802729 0.08170722
000390 1e 38 c9 3c fa d0 05 bf e8 45 5b be 29 e7 2c bf
       0.024562892 -0.52272 -0.21413386 -0.6754022
0003a0 f1 d0 d9 3e 70 d9 c6 3e 82 fe d7 3c f0 a1 e0 3d
       0.42542222 0.38837767 0.026366476 0.10968387
0003b0 39 b2 03 bf 7f de 23 bf 44 21 95 be 1f d5 1c be
       -0.5144382 -0.6401138 -0.29126942 -0.15315674
0003c0 fb 61 36 bf d4 18 b4 3e b7 dc 08 3d 26 52 28 bf
       -0.71243256 0.35175192 0.033413615 -0.6575035
0003d0 20 3f 46 3e 49 31 81 3e 07 69 8e 3d 9d 1b d4 3c
       0.19360018 0.25232914 0.06953626 0.025892073
0003e0 db 3f 76 bf 82 23 a8 3e 7c 96 df be 63 b5 f6 bb
       -0.96191186 0.3283959 -0.43669498 -0.007528947
0003f0 66 28 82 3b 54 ff 17 bf 9e 4c 47 be 28 8a 2c 3e
       0.003972101 -0.59373975 -0.19462821 0.16849577

conv2d_20.b_0 f4 [88]
000000 d8 b0 d5 bd 0f 14 b6 be df 97 a1 be 89 55 64 bd
       -0.10434121 -0.35562178 -0.3156118 -0.055745635
000010 5d b9 96 3d 2f 61 3c be 66 85 d1 bd 4c 8c 13 bd
       0.07359574 -0.18396448 -0.10230522 -0.03602247
000020 8c 2b 10 3a a5 53 00 3c f7 3f f8 bc a1 21 90 bd
       0.0005499653 0.007832442 -0.030303938 -0.07037664
000030 bf 27 78 3d a3 ce 45 bd 4a 46 85 bb 53 db db bd
       0.06058478 -0.048292767 -0.004067217 -0.10735192
000040 47 00 3e 3d e8 7b 65 be d1 fe 09 be 51 62 f0 bd
       0.046386983 -0.22410548 -0.13476111 -0.11737502
000050 40 0f de 3c a1 1a 8c bd 78 78 75 3e 9e 90 66 bd
       0.027106881 -0.068410166 0.23971736 -0.05629026
000060 06 38 fc bd 01 96 12 bd d0 8a ad 3c 38 f8 10 3e
       -0.12315373 -0.035787586 0.021184355 0.14157188
000070 85 ad 0d be 21 40 bd 3e 9e 9e 23 bd 62 df 17 be
       -0.13835724 0.3696299 -0.03994619 -0.14831308
000080 c0 22 47 3d d9 23 f9 3a 2c 62 56 3e e9 b8 29 bc
       0.048617125 0.0019007876 0.20935887 -0.010359027
000090 43 7a 01 be 97 c6 bf bc 8d 05 91 3c e7 7d 23 be
       -0.12644295 -0.023410125 0.017702842 -0.15965997
0000a0 10 d1 9e 3c 07 86 d4 3d 46 be f4 3c a6 de 57 3e
       0.019386798 0.10377126 0.029875886 0.21081027
0000b0 43 3f a5 ba c1 ce 06 3c e8 89 a9 bd 64 6f 05 be
       -0.0012607354 0.008228005 -0.08278257 -0.13030773
0000c0 36 da 02 bc 4a 30 39 be 8c f7 39 be 50 20 36 3e
       -0.007986596 -0.18084827 -0.18160838 0.17785764
0000d0 01 22 4f be 0c 36 45 be b1 d2 23 be d6 ab d5 bc
       -0.20227815 -0.19258898 -0.15998341 -0.026082914
0000e0 d0 a2 7c be 6e c8 33 be 2d 2b b2 3e 91 0d e5 3d
       -0.24671483 -0.17556927 0.34798566 0.11184228
0000f0 5f e6 fd bd ac d3 0e be 36 a2 68 3e 2b 6b 03 3e
       -0.123974554 -0.13947934 0.22718129 0.1283385
000100 cb e5 a6 3d 69 6d 8d 3d a9 f6 51 3d 95 83 89 bc
       0.08149298 0.06905634 0.051260624 -0.016786376
000110 20 9b 57 3d 2c da 2e be b0 14 80 3d e8 d5 a8 be
       0.052638173 -0.17075413 0.06253946 -0.32975698
000120 77 f5 54 be 1f 6a 8c 3d e5 62 53 3e e7 1f 98 bc
       -0.20796762 0.068561785 0.20643194 -0.0185699
000130 b0 20 80 bd 4a 7e fc bd 42 ac 65 3e 95 89 27 3d
       -0.06256235 -0.12328775 0.22428992 0.040902693
000140 08 25 f2 bc af 17 2a 3d 88 f0 2e 3e d8 84 d9 bc
       -0.029558674 0.041526493 0.17083943 -0.026552603
000150 30 7b cb 3d 73 aa 12 be bd 45 79 be 63 e9 06 3e
       0.099356055 -0.14322834 -0.2434301 0.13174967

conv2d_20.w_0 f4 [88, 22, 1, 1]
000000 b2 3a 74 be 41 7a 88 bc 3d c1 96 3e 61 14 44 3e
       -0.23850515 -0.016659858 0.29444304 0.19148399
000010 a9 62 d5 3e eb 8e a2 3c 29 3b 9b 3d cc 48 c1 3e
       0.41676834 0.01984354 0.07579643 0.37750852
000020 b6 07 dc be 8c e0 b3 3d d5 f2 de be 4f c4 8d bd
       -0.42974633 0.08783063 -0.4354464 -0.069222085
000030 32 81 4e be 77 e0 a3 3d 97 ba 28 be f0 aa 5d 3e
       -0.20166472 0.08001798 -0.16477428 0.21647239
000040 ed b0 d8 3e 15 1e 75 be de 03 d2 bd 6b 27 c1 be
       0.42322484 -0.23937257 -0.10254644 -0.37725386
000050 6d 56 42 bf 65 1b 0c 3e 32 84 ae bd dc 7b 00 3d
       -0.75913125 0.13682325 -0.08521308 0.03136812
000060 eb 88 65 3f b1 7f 0a 3f 26 f3 bb be a8 d5 0e bf
       0.89662045 0.5410109 -0.36708945 -0.55794764
000070 13 9a 1b 3e f4 dc 5f 3f b6 cd ae 3e 02 52 bf 3d
       0.15195493 0.8744652 0.3414132 0.093418136
000080 0b 88 33 3e 45 1e b2 3e 8e 37 06 bf d8 29 92 be
       0.17532365 0.3478872 -0.5242852 -0.2854755
000090 1e 5c 56 be 04 fa ee 3c 52 55 69 3e 7d a7 4c be
       -0.20933577 0.029171951 0.22786453 -0.19985767
0000a0 b5 a3 47 bf d5 7a 9b be 23 1a d9 3e 30 9a 04 3f
       -0.7798417 -0.3036715 0.42402753 0.5179777
0000b0 be 5a 9c 3e cf 8e ed 3e ee 94 5a 3f 50 52 c2 3d
       0.3053798 0.46398017 0.853835 0.09488356
0000c0 de 1c 42 bf 8d a0 d5 be 89 a0 bd 3c a9 da 05 bf
       -0.758253 -0.41724053 0.023147838 -0.52286774
0000d0 a6 3e f1 3e aa e4 f7 be 94 53 26 be 7c e9 34 3b
       0.4711811 -0.48416644 -0.1624282 0.0027604988
0000e0 d3 e3 e1 be f0 de 63 be e0 15 35 be 5c bc 41 be
       -0.4411913 -0.22253013 -0.17684126 -0.1891951
0000f0 2b 4e 21 3e 3b 29 e8 3e 9f c3 28 be de 2e 31 3e
       0.15752475 0.45343956 -0.16480874 0.17303035
000100 a1 ed ce 3e 46 8b 2d 3f d3 29 ec 3d 41 4f 9b be
       0.4041567 0.6779064 0.11531415 -0.30333903
000110 01 e2 35 3f 3e eb 09 be 5a b4 21 3f 1c 1a 38 3f
       0.7104798 -0.13468644 0.6316582 0.7191484
000120 32 0a a8 3e d3 37 e7 3e 0c 95 9e bd 6e 21 e1 3c
       0.32820278 0.45159778 -0.07743272 0.02748176
000130 8e 0b 65 be 8f 86 ad be db 79 a1 3e a5 67 10 bd
       -0.22367689 -0.33891723 0.3153828 -0.035255093
000140 d4 bc ff bc f1 59 4b be ec a1 8e be a3 42 69 bf
       -0.03121797 -0.19858529 -0.27857912 -0.91117305
000150 0e 76 24 bf e6 e6 70 be 98 32 55 be d2 85 5f 3e
       -0.6424264 -0.23525581 -0.20820081 0.21828392
000160 13 9c 08 be 4a 69 78 3d a2 cb 85 bd 65 6a 17 3e
       -0.13340788 0.060647286 -0.065329805 0.1478668
000170 21 c0 1a bc dc f0 e3 3b 81 07 cb bc de ae 81 be
       -0.009445221 0.006956203 -0.024783852 -0.25328726
000180 72 f2 88 3e 6a bc 21 3d a4 64 1a 3e 3d 28 37 3e
       0.2674747 0.039486326 0.15077454 0.17886443
000190 91 55 38 3e 82 bf 71 be 3b 1e a3 bd cf a9 a7 bd
       0.18001391 -0.2360821 -0.079647504 -0.08186685
0001a0 2c 1e a2 3c d6 04 d1 3d 62 7f 80 3d e4 34 6e be
       0.019789778 0.102060005 0.06274296 -0.23262364
0001b0 a9 c2 aa 3e 43 ba b2 bd 81 3f 19 bf 1e cc 02 bd
       0.3335164 -0.08726933 -0.59862524 -0.031932943
0001c0 b3 b6 e4 3e 41 c0 04 3f 03 bf 9f bd 75 0e 28 3d
       0.44670638 0.51855856 -0.078001045 0.041029412
0001d0 40 0e d9 bc 71 d0 27 3e e4 02 cd bd e9 fb e7 bd
       -0.026496053 0.16388108 -0.10010317 -0.11327345
0001e0 2b 6c 5d 3f 17 e4 e1 3d 9f 4e 8c bd 33 48 bc be
       0.86493176 0.11029833 -0.06850933 -0.36773834
0001f0 46 1e 6f 3e c3 3b 09 bf 24 13 af bd 48 46 12 be
       0.23351392 -0.53606814 -0.08548573 -0.14284623
000200 8d d2 2d bf d8 6a 17 bf 88 44 1a 3f 15 bd 48 3e
       -0.678994 -0.59147406 0.6026082 0.19603379
000210 e4 a2 eb bd d4 b7 a2 bd 6b 6a 8d 3e ba b0 9e be
       -0.11505678 -0.07945219 0.27620253 -0.30994207
000220 fb d2 8b 3e 1b 7b f4 3d 8a 50 5e be 2e 85 d0 3e
       0.27309403 0.11937543 -0.2171041 0.40726608
000230 98 64 b7 be bf 1d 48 bd 6a 64 00 3e 3b 34 f0 3d
       -0.35818934 -0.048856493 0.12538305 0.11728712
000240 ed f4 9b 3e 4a cc cf be 88 17 d4 bd 92 c5 9d be
       0.304603 -0.40585548 -0.10356051 -0.30814797
000250 e0 76 dc be da 9b 84 3d c9 5e 0d 3d 1b 86 06 3f
       -0.43059444 0.06475039 0.034514222 0.5254838
000260 e5 63 bb 3d 5d 8f 33 bf 10 53 59 bd 3d ae 33 be
       0.09149913 -0.7014063 -0.05305773 -0.17546935
000270 cc 23 1e be ef 54 96 be 59 9a 56 be 1c 66 76 be
       -0.15443343 -0.29361674 -0.20957316 -0.24062389
000280 43 ab 50 be 72 5f 16 bc 23 41 2d 3d d8 7f 80 be
       -0.20377831 -0.009178029 0.042298447 -0.25097537
000290 76 53 a0 3e 8d 07 33 be c2 09 d6 3d ed 4e 34 be
       0.31313676 -0.17483349 0.1045108 -0.17608233
0002a0 4b f7 0e bd c2 c6 00 be f0 29 e2 3e 08 c4 13 bc
       -0.034903806 -0.1257582 0.4417262 -0.009018905
0002b0 09 0c 66 bd 22 1f bf 3e 9a 0c 26 3e d9 d1 7a 3e
       -0.05616382 0.3732844 0.16215745 0.24494113
0002c0 fd f0 04 bf 33 04 8c 3e 56 92 6b 3e 46 8f 11 3f
       -0.5193022 0.27346954 0.23005041 0.5685924
0002d0 2d 2e 27 3f 94 df 65 3c e4 2e 6e 3e d8 35 f5 3e
       0.65304834 0.014030356 0.23260075 0.47892642
0002e0 13 8c 0e bf 4e 60 d6 bd 29 09 43 3e 24 bf d6 be
       -0.55682486 -0.104675874 0.19046463 -0.41942704
0002f0 28 30 01 bb d2 61 18 be d6 32 47 be 13 95 af be
       -0.0019712541 -0.14881065 -0.19452986 -0.34293422
000300 c8 ce f7 bd 1c b6 0e be 58 d1 9a be 4c 7f 37 bf
       -0.12099987 -0.13936657 -0.30237842 -0.71678615
000310 fd a2 b4 3e d9 cb 5f be f8 74 43 be 91 cf da 3c
       0.352806 -0.21855105 -0.19087589 0.026710304
000320 65 f7 16 3e e6 88 5b 3d 30 2b 7d bd 39 8c db 3d
       0.14742811 0.053597353 -0.061808765 0.10720105
000330 f7 f7 51 be e8 5a 02 3e 40 af ef bc 80 83 c0 bd
       -0.20504747 0.1272999 -0.02925837 -0.09400082
000340 94 46 2f be 6f 5b 09 be bb ad 6b 3e 55 0d b3 bb
       -0.17116767 -0.13413785 0.23015492 -0.005464236
000350 d2 9e 3c 3e 00 cc 1d be 98 c5 67 3e 0a 2c 01 be
       0.1841996 -0.15409851 0.2263397 -0.12614456
000360 91 b4 6e 3e 41 07 89 be 20 03 b3 3e a7 d2 f6 3d
       0.23311068 -0.26763347 0.34963322 0.120518975
000370 d4 e3 d7 3e 89 f0 55 3d d2 46 55 be 94 8d 1d 3f
       0.42166007 0.052231345 -0.20827797 0.61544156
000380 a3 2b a8 be a5 ef bd be 58 19 70 3d 38 ad 8e 3e
       -0.32845792 -0.37096897 0.05861792 0.2786653
000390 54 d1 38 be f5 3c 95 be 45 91 f4 bc be 83 9a be
       -0.18048602 -0.2914807 -0.029854426 -0.30178636
0003a0 2a 6d 0b 3e ba 40 3a bd 45 74 29 bc 45 56 26 3e
       0.13615862 -0.045471884 -0.010342662 0.16243847
0003b0 94 c8 ae 3e 4f b0 ce 3a 06 47 69 3e 13 c2 94 bb
       0.34137404 0.0015769097 0.22781 -0.004539737
0003c0 e3 3f 43 be 7a ed d0 bd fe 0e 38 3e 62 a3 7b 3e
       -0.1906734 -0.10201545 0.17974469 0.24574044
0003d0 3d 97 1f 3f 5c e6 47 bf 9c 79 52 be 72 8a d8 bd
       0.62340146 -0.78085876 -0.20554203 -0.10573281
0003e0 4c 3b 3f be 3a c7 8b be 1b 1e 7d 3d 36 b4 df be
       -0.18674964 -0.27300435 0.06179629 -0.43692178
0003f0 ab 20 14 3e d9 8d 80 3d f4 b6 01 3e ba 08 06 bf
       0.14465587 0.06277055 0.12667447 -0.52357066

conv2d_24.b_0 f4 [22]
000000 5d f2 1c 3d 0d 3f e9 bb 94 cb 3e 3c 82 95 78 3d
       0.038317073 -0.007118112 0.0116452165 0.060689457
000010 a4 dc b7 3d ad 82 9b 3d c6 0d 79 3d 11 7b 83 3c
       0.08977631 0.07593284 0.06080415 0.016049894
000020 5e 7c 6c 3c 80 20 3d bd 91 4e a7 bc 1f 70 57 bb
       0.014433948 -0.046173573 -0.020423206 -0.0032873226
000030 d8 30 d5 bc 92 08 a8 bd 1c c8 ee 3d fb d1 1e 3d
       -0.026024267 -0.0820476 0.116592616 0.03877447
000040 87 5f 57 bd 73 18 bf 3d 84 91 45 3d 13 81 89 3d
       -0.052581336 0.09330835 0.048234478 0.06714072
000050 34 6a 66 3d 87 6f 52 3d
       0.056253627 0.051375892

conv2d_24.w_0 f4 [22, 88, 1, 1]
000000 f8 7f c2 3d 34 b4 da 3e 32 86 03 bd f8 2d 01 be
       0.09497064 0.4271561 -0.0321104 -0.12615192
000010 03 c0 67 3d 24 f6 b8 bd a1 f9 84 3d 02 58 0c 3e
       0.0565796 -0.090313226 0.064929254 0.13705447
000020 ee 8f 6e 3e 44 12 b7 be a2 ed 24 3e 34 df 22 bd
       0.23297092 -0.35756123 0.16106275 -0.039763644
000030 b8 52 31 3e af 3b 70 be 61 ef 83 bc 92 24 46 3d
       0.17316711 -0.23460267 -0.016105356 0.04837472
000040 d5 7f 90 3a 47 93 a3 3e 89 7e 89 bd 9c 8f 3d be
       0.0011024425 0.319483 -0.06713588 -0.18511814
000050 12 05 05 3e 71 62 a0 3e 41 1a a1 3e f8 62 00 bd
       0.12990215 0.31325105 0.31465343 -0.031344384
000060 79 f2 59 be f8 27 b9 bd bc 17 ab 3e c3 b8 b2 bd
       -0.21283902 -0.090408266 0.33416545 -0.08726647
000070 a9 d6 78 3e a7 38 89 3e 96 c5 ff bd b9 bf bc 3e
       0.24300636 0.26801035 -0.124888584 0.36865023
000080 a6 80 02 be 8b ca 10 bd af aa b8 3e ab e6 5d be
       -0.12744388 -0.03534941 0.3606772 -0.21670024
000090 3a 60 ad 3e 48 6f 75 be ea 95 02 be d1 ce 94 be
       0.33862478 -0.23968232 -0.127525 -0.29064038
0000a0 bd 17 09 bd 8c 7d 58 3d 93 ca 15 bf 4c 21 c8 3e
       -0.033469904 0.052854106 -0.5851223 0.39087903
0000b0 66 a3 22 3c f3 05 aa 3e d0 4c 44 3d fd 5a d5 be
       0.009926653 0.33207664 0.047924817 -0.4167098
0000c0 86 dd 8c 3d a7 9e a8 be ed aa b5 be d4 f2 f6 bd
       0.0687819 -0.32933542 -0.3548197 -0.120580345
0000d0 97 2c 7a 3d 94 28 9b 3d a9 40 44 3e b7 d9 08 3e
       0.06107768 0.07576099 0.19165291 0.13364302
0000e0 50 e6 8d 3c 07 fc 51 3e a8 ee 4a 3e 1c 05 02 3f
       0.017321736 0.20506297 0.19817603 0.50789046
0000f0 99 6c 32 3c dc a8 4f 3c 89 3f 88 3e ca a9 75 3c
       0.0108901495 0.012674537 0.26610973 0.014994094
000100 8b 8b 2a be 00 2b 4f bc e7 ae 80 3d 48 e5 9c be
       -0.16654794 -0.012644529 0.0628336 -0.30643678
000110 24 a0 5e 3e 01 62 1a 3e 29 7f ef be 8b 5f f5 bd
       0.21740776 0.15076448 -0.46776703 -0.11981114
000120 15 3c 52 3e 9f 52 55 be 01 40 3f bc b2 c8 a3 3e
       0.20530732 -0.20832299 -0.011672975 0.31989056
000130 54 74 25 3e 90 5b 68 3d a0 b8 c2 bd cd 2d a8 be
       0.16157657 0.056727946 -0.09507871 -0.32847443
000140 42 fb 30 be 0f 42 3c be 53 a1 83 3e 35 b4 9e 3d
       -0.17283347 -0.18384574 0.25709018 0.077492155
000150 0f 84 8b 3e a1 92 fc bc f4 22 de 3b 0d f9 49 bd
       0.2724919 -0.030831637 0.006779069 -0.04930978
000160 c9 41 eb bc fe 1e e4 3e b9 f5 b2 3e 04 95 56 bd
       -0.028717892 0.44554895 0.34953097 -0.052388206
000170 56 42 11 3d 8f f7 8e be bd aa 05 3f 04 ff 59 bd
       0.035463654 -0.27923247 0.5221365 -0.053221717
000180 85 3f cb be b4 eb c7 3d 7d 2a b0 3b ae 6a e4 3e
       -0.396969 0.09761754 0.0053761587 0.4461264
000190 4f f9 e0 3d 08 dd d8 3e f4 f5 11 3e 2c 08 06 bf
       0.10985052 0.42356133 0.1425398 -0.5235622
0001a0 e9 95 bd be 68 25 22 3e 04 45 78 be 32 d9 c9 3c
       -0.37028435 0.15834582 -0.24245077 0.0246397
0001b0 47 54 ad 3d a0 b8 a5 be 92 67 96 bd 83 f2 67 3e
       0.0846334 -0.3236742 -0.07343973 0.22651105
0001c0 48 03 85 3d b2 08 3d be 51 76 8c bd 2c fc f5 3d
       0.064947665 -0.18460348 -0.068585046 0.120109886
0001d0 f4 bb 97 3d b5 f0 c4 bd c4 da 90 3d 2b 7d 24 3e
       0.07408896 -0.09616224 0.07072976 0.16063373
0001e0 bb 62 ab 3e e8 94 87 3e e7 16 0e 3d 83 06 9c 3d
       0.33473763 0.26480794 0.03468981 0.076184295
0001f0 31 c9 eb 3d 9c 61 20 be 35 84 b1 3e 24 e9 8f 3e
       0.115129836 -0.15662235 0.34671178 0.2810756
000200 95 64 4c 3d b0 72 98 3e c2 d1 b2 3e f2 39 ae be
       0.04990061 0.29775 0.34925658 -0.34028584
000210 93 d9 e9 be 5e d4 dc be 5a 08 9a 3d 8d ee 9e be
       -0.45673808 -0.43130773 0.07521124 -0.31041375
000220 55 a8 6e be d8 6a 50 be 16 47 35 be 14 1f ba 3e
       -0.23306401 -0.20353258 -0.17702898 0.36351836
000230 90 95 af bd 1a 60 15 3e f9 5d c6 be 83 a9 a4 be
       -0.08573449 0.14587441 -0.3874357 -0.32160577
000240 da 6e a9 be a1 24 15 be 9f cd 70 3e 2b 48 38 3d
       -0.33092386 -0.14564754 0.23515938 0.0449907
000250 ca d4 63 3e 8b 4c a2 bd e8 1d 8a 3e 18 f5 c8 3d
       0.22249141 -0.07924756 0.26975942 0.09812373
000260 41 82 70 bd 16 c3 c8 3d 26 b8 29 be 29 a9 8e 3e
       -0.05871797 0.09802835 -0.16574153 0.27863434
000270 09 74 11 3e c2 4e 06 be f2 5d 57 bf 11 d6 b7 be
       0.1420442 -0.13115981 -0.84127724 -0.35905507
000280 8d 14 e7 bc b0 f7 19 3e 46 cd 9b 3e 1b 16 19 3f
       -0.028208042 0.15035892 0.3043005 0.59799355
000290 ba c6 d5 3e 18 f8 e5 3d 0b 3f 6c bc 13 7f 96 bd
       0.4175318 0.11228961 -0.0144193275 -0.07348456
0002a0 52 6a 13 3c 46 4a 19 3e 5c c1 7e 3d b5 89 ee 3d
       0.008997517 0.1496974 0.06219612 0.11647359
0002b0 ae a9 27 3e 69 d0 ab be a8 ed c7 be 8f 2f 1a be
       0.16373321 -0.33557442 -0.39048505 -0.15057205
0002c0 8a 80 6f 3e 2a 6c b2 3e a5 86 6c 3c 18 19 b3 3c
       0.23388878 0.34848148 0.014436399 0.021862552
0002d0 da 1a 41 be a6 de 0a 3d e9 ac b8 3e 59 e5 36 3e
       -0.188579 0.03390374 0.3606942 0.17860927
0002e0 6f 74 ab 3e 6f 39 f7 be f3 0a 01 3e 72 2b 37 3e
       0.3348727 -0.48286006 0.12601833 0.17887667
0002f0 67 59 75 3d 51 e4 a3 3e 03 bf 4c be 4b e1 e1 3e
       0.059899714 0.3201013 -0.1999474 0.44117197
000300 d9 29 65 3e 88 f2 1d 3d 28 a1 c1 3d 91 8e 39 3e
       0.22379245 0.038561374 0.09454566 0.18120791
000310 ef 48 b0 bd a6 47 0f 3f f4 a1 79 3e 47 42 d2 be
       -0.08607661 0.559687 0.24378186 -0.4106619
000320 95 c1 15 3c c6 cc 26 3e e2 40 6e bf 3e f5 ab 3e
       0.009140392 0.16289052 -0.93067753 0.33585542
000330 73 85 c6 3d 62 15 5a bf 6b 8e 42 3b 0f fd b8 be
       0.09693422 -0.8518888 0.0029686939 -0.36130568
000340 50 68 7c 3e 23 35 88 3e ac 87 00 be 56 4e 10 bf
       0.24649167 0.2660304 -0.12551755 -0.5636953
000350 fc 78 11 bf af 2f e9 3d b6 9a a4 bc 65 b9 d9 bd
       -0.5682523 0.11386048 -0.020093303 -0.10631064
000360 0d d6 b4 bd 6c e1 0d 3e ac 9f 21 3f e4 9e 86 be
       -0.088298894 0.13855523 0.63134265 -0.262931
000370 71 c2 a5 3e b1 4d 36 be 05 97 4e bf d2 c3 5b 3d
       0.3237491 -0.17803074 -0.8069919 0.053653546
000380 f5 5d c5 be 16 f1 51 3e 09 da 3f bc 8c ab f7 bc
       -0.38548246 0.20502123 -0.0117096985 -0.030233167
000390 dd 6b b7 bc ef ad c9 bd 0d 17 e1 be 82 f6 8c be
       -0.0223903 -0.09847628 -0.439629 -0.2753182
0003a0 cd 10 4c bf 8b 8a 60 be 82 eb f4 be f2 bb 07 3e
       -0.79713136 -0.2192785 -0.47835928 0.13255289
0003b0 ed ac be 3e 43 5d 80 bf 33 2b 3d be ed 7a 39 3f
       0.37241307 -1.0028461 -0.1847351 0.72453195
0003c0 20 fd 16 be f9 ab 3c be 18 64 7f 3d c6 02 06 bf
       -0.14744997 -0.18424977 0.062351316 -0.5234798
0003d0 a0 0c 10 be 3e 33 72 3d 89 00 f8 3d 16 20 82 3d
       -0.14067316 0.0591309 0.12109477 0.06353776
0003e0 4e 43 fe 3d 9e f5 a0 bd 28 2f fa bd 49 c9 8b be
       0.12415181 -0.07859348 -0.122160256 -0.27302006
0003f0 e0 a9 3a 3e d4 46 0b bf ce 61 92 bd fd 11 33 bf
       0.18228865 -0.5440495 -0.07147561 -0.6994932

conv2d_25.b_0 f4 [88]
000000 d8 a6 67 3e fe 98 a4 bd e2 75 9c bc 75 d9 9d bd
       0.2262224 -0.080369934 -0.01909918 -0.07707492
000010 d7 97 8f 3b 6b d3 70 3e 7a 31 1d be 41 1d 57 3e
       0.0043821144 0.2351815 -0.15350905 0.21007253
000020 60 3c 1d 3e 23 54 1c be 57 5c 4d 3e 31 bf 18 bd
       0.15355062 -0.1526647 0.20054756 -0.03729171
000030 35 81 68 be 3f 31 9c 3d f8 5e f0 bd ba 32 ba bd
       -0.22705539 0.076265804 -0.11736864 -0.090917066
000040 de ce e2 bd f1 4c 5b 3e 4d fc f0 bc 89 26 5f 3d
       -0.11074613 0.2141607 -0.029417181 0.05448011
000050 ca 91 a2 bc a9 b4 f6 bc 11 dc 59 bd 3b e5 0a bd
       -0.019844908 -0.030115442 -0.053188387 -0.033910017
000060 e4 f6 4b be 01 04 18 3e 55 86 16 be cb f0 68 be
       -0.199184 0.14845277 -0.14699681 -0.22748105
000070 31 93 72 3e 39 d8 38 be 6c 09 4a 3e a1 51 97 3d
       0.23688962 -0.18051232 0.19730157 0.07388616
000080 06 03 86 3d ae 4e 57 be bd 3a 5b bb 8c b4 c1 bc
       0.065435454 -0.21026108 -0.0033451759 -0.023645662
000090 9d c9 1b 3e 11 7e bf 3d 8c db 9f bd 68 ec 9c 3c
       0.15213628 0.09350217 -0.07805547 0.019155696
0000a0 9f 59 76 be b8 95 af bc b5 f6 97 bd 24 fb c8 3b
       -0.24057625 -0.021433696 -0.074201025 0.006133454
0000b0 39 c4 0a 3c cc b3 47 be 09 8d 5a bd 31 c1 f2 bc
       0.008469635 -0.19502181 -0.053357158 -0.029633136
0000c0 a3 ec 1e be 53 b9 08 3d ad df 88 bd aa 2b cf ba
       -0.15519957 0.033379864 -0.06683288 -0.001580586
0000d0 66 c2 fa bd 24 79 ad 3d bd 09 8c 3d e6 1e 03 be
       -0.1224411 0.08470371 0.06837795 -0.12804756
0000e0 95 f1 ba bc 40 b9 b2 ba 00 8c 4a 3c 51 e8 97 3d
       -0.022820273 -0.0013635531 0.01236248 0.07417358
0000f0 f9 79 1c 3e 5a 38 4c 3d 0c 73 c8 bd 9d 0c 9b bd
       0.15280904 0.04985843 -0.097875684 -0.07570765
000100 07 fa 1f 3d 81 65 1a 3d fe 3a 96 bd a6 d9 c1 bb
       0.039056804 0.037694458 -0.073354706 -0.0059158383
000110 28 86 e7 bc e5 ba 32 3d 50 49 40 be c5 fb fd 3d
       -0.028262213 0.043635268 -0.18777966 0.12401537
000120 01 57 38 3e 54 56 1b 3e 8c 48 97 3d 1a 84 23 3e
       0.1800194 0.1516965 0.07386884 0.15968361
000130 53 5e e8 bc ae 3c 26 3d 71 97 a7 3e 74 01 56 3d
       -0.02836529 0.040585212 0.32732728 0.05224748
000140 6e a9 d3 3b 6b 26 6e bd 76 0c 6e 3d 69 23 ec bd
       0.0064594066 -0.058142107 0.058117352 -0.115301915
000150 ab 3d 7c bd 0c 42 79 bc fb 60 58 3c 3c 39 c0 bc
       -0.06158225 -0.015213501 0.013206716 -0.023464791

conv2d_25.w_0 f4 [88, 22, 1, 1]
000000 3e e1 73 3d 3e d4 0b be 5b ef fa 3e bf 6e 06 be
       0.05954098 -0.13655183 0.4901074 -0.13128184
000010 6f 71 02 be 2b eb fc 3d b4 70 a6 3e c0 66 17 3f
       -0.12738584 0.12349542 0.3250786 0.5914116
000020 4e 75 b7 3d 7d 4e 8d bd ad 24 49 3e d0 c6 76 3d
       0.08957921 -0.06899736 0.19642897 0.060248196
000030 3e a6 e6 bc 89 68 0a 3d 05 e3 72 3d 78 ad 03 3e
       -0.028155442 0.0337911 0.059298534 0.12859142
000040 79 a3 35 3e ac 41 44 be d8 12 3d be a7 e8 91 bd
       0.17738141 -0.19165677 -0.1846422 -0.07124453
000050 58 2d 0f 3e 86 b3 cd be 6b 18 a0 bc 00 ec 12 bd
       0.13982141 -0.40176028 -0.019542893 -0.0358696
000060 20 5e d1 be 65 f0 fa bc 42 56 83 be fa 11 82 3d
       -0.40892124 -0.030632207 -0.25651747 0.06351085
000070 91 e6 68 bf 57 b5 01 be e0 46 a7 be c6 12 46 bd
       -0.90976816 -0.12666832 -0.3267126 -0.048357747
000080 ab 12 1c bf 45 c8 d0 3e 85 05 92 be 16 4a d2 bd
       -0.60965985 0.40777794 -0.28519836 -0.10268037
000090 42 56 a6 bd c1 39 f9 be bb e7 20 bf 25 eb b5 3e
       -0.08121921 -0.48676875 -0.6285359 0.35530964
0000a0 91 5b df bd b1 76 4c be 88 bd 79 3e 79 31 d4 be
       -0.10906137 -0.19967152 0.24388707 -0.41443995
0000b0 04 48 96 3d 9f ee 25 3e 14 1a 94 3d 24 a8 c3 be
       0.07337955 0.16204308 0.072315365 -0.3821422
0000c0 ac 18 96 be cb 22 0b 3f 7f 44 05 3f c7 14 d4 3e
       -0.29315698 0.54349965 0.5205764 0.41422102
0000d0 49 03 29 bf 56 7a b6 bc e2 32 63 3e 7c 8a 91 3e
       -0.6602064 -0.022275131 0.22187379 0.28425968
0000e0 93 7f ae bd 7b 46 f9 bd d0 01 c6 3e a9 0a f6 3c
       -0.085204266 -0.12171646 0.38673258 0.03003438
0000f0 08 9e 9c be eb ad 57 3e 57 1e 15 be 77 f1 1f bf
       -0.30589318 0.21062438 -0.14562355 -0.6247782
000100 5c ae 3b bd bd 19 73 be 1f a0 f0 3e 9c 5c a4 3d
       -0.04582058 -0.23740287 0.46997163 0.08025476
000110 9b 8e 8a 3d 2e b5 ba bd b1 94 53 3e d9 90 18 be
       0.06765481 -0.091165885 0.2066219 -0.14899005
000120 66 22 f4 be 4b 10 e3 3e c7 6e 7e 3e c1 b6 ec bc
       -0.47682494 0.44348368 0.24846946 -0.028895738
000130 8d e1 aa be ce 8b 0a 3f b6 35 a2 be 87 2a 45 be
       -0.33375207 0.54119575 -0.31681603 -0.19254504
000140 3d ce 8a bd 74 08 16 be e1 03 a1 bc 19 53 45 bf
       -0.06777618 -0.14651662 -0.01965517 -0.7707992
000150 12 77 4d 3e 05 39 00 3f ae 19 84 be 3b 09 67 be
       0.20064953 0.50087005 -0.25800842 -0.22562115
000160 f0 25 ca be 02 e2 81 be cc 15 91 3d 26 94 a7 3e
       -0.3948207 -0.25367743 0.070842355 0.32730216
000170 e4 38 f5 3d d4 24 e3 3b fe 90 1d bf 44 94 d0 be
       0.11973742 0.0069318805 -0.61549366 -0.40738118
000180 4e 60 ad bd c7 d6 87 3e 94 f1 9d bd c5 e2 7d be
       -0.08465634 0.2653105 -0.07712093 -0.24793537
000190 ff 4a 10 be ba 50 2d be 6c 06 61 3e 3d 4b 81 3e
       -0.14091109 -0.16925326 0.21975106 0.25252715
0001a0 dd a7 a4 3d 61 86 52 3e 51 48 f8 3d 0d 52 98 3e
       0.0803983 0.20559074 0.12123168 0.297501
0001b0 58 ae cc bc ae 78 8c bf 69 e2 6a 3e d5 03 16 be
       -0.024985477 -1.0974329 0.22937931 -0.146499
0001c0 8d 93 c2 bd ea e3 3f 3e f1 96 a9 bd a9 67 10 3f
       -0.09500799 0.18739286 -0.08280743 0.5640817
0001d0 1d 4e dc 3b a5 13 b7 be 93 3f 98 3d 68 c6 ae be
       0.006723179 -0.35757175 0.07434001 -0.34135747
0001e0 60 fe 50 bd 7b eb 18 3f 92 22 13 bf eb 69 94 bd
       -0.05102384 0.59734315 -0.57474625 -0.07246765
0001f0 f8 ec 90 be b1 26 65 be 80 e9 3f be a3 eb 79 3e
       -0.28305793 -0.22378041 -0.18741417 0.24406295
000200 02 48 41 3e f3 fb 60 3e 2f 17 c7 be 71 b1 7d bb
       0.18875125 0.21971111 -0.38884875 -0.00387105
000210 d9 06 9d be 00 0e 94 be 81 b3 bc bd 30 ac b8 3e
       -0.30669287 -0.2891693 -0.09213925 0.3606887
000220 b8 79 2b 3f 3d b6 d7 be 0d 12 2b be 61 0a 8c 3d
       0.66982603 -0.42131224 -0.16706105 0.06837917
000230 f4 90 bf be d7 86 db bd 82 e2 d1 be 5c f9 80 be
       -0.37415278 -0.10719078 -0.40993124 -0.25190246
000240 5b 93 a3 3d 5a 02 79 be a2 b7 b2 be 6a 5c b5 be
       0.0798709 -0.24317303 -0.34905726 -0.3542207
000250 8c b4 8b 3e 71 4c 87 bd af 0c a3 be 95 32 40 3e
       0.27286184 -0.06606377 -0.31845614 0.18769296
000260 76 74 3c bd bb 99 54 3e ec 3e 9e 3d 78 3f 5f 3e
       -0.046009503 0.20761769 0.07726845 0.21801555
000270 63 17 80 bd a5 ea dd 3e a4 21 ec bd d9 3a f9 bd
       -0.06254461 0.43343082 -0.11529854 -0.121694274
000280 93 c4 91 be 1b a0 21 3d 2b f6 85 3e 37 d7 0d bd
       -0.28470287 0.03945933 0.26164374 -0.034629073
000290 2f 9b 9c 3c 83 b4 b5 bb cd 6b b9 bd 27 be 02 be
       0.019116966 -0.0055452003 -0.090537645 -0.1276785
0002a0 c1 1c be be ef f9 c4 3d 95 50 db 3d 24 a7 a1 bd
       -0.37131312 0.096179835 0.10708729 -0.07893208
0002b0 07 ac 59 be 0a ba eb 3e db 54 79 3c 34 4d 5a 3e
       -0.2125703 0.46040374 0.015217985 0.21318513
0002c0 ea 99 ee bd 84 2a 1e 3e 19 39 65 bf 3d b7 22 be
       -0.116504505 0.15445906 -0.8954025 -0.15890212
0002d0 24 ad 78 3d 3e 7e bd be 7d 8e 47 be 82 65 a2 3e
       0.060711995 -0.37010378 -0.19487949 0.3171807
0002e0 2e d2 a2 be ec fb 95 3d 41 eb c6 bc 8e d5 a4 3e
       -0.3180098 0.07323441 -0.0242821 0.3219418
0002f0 be 22 ba bd 17 7f cb bd 54 23 63 3d 5b f2 c3 be
       -0.09088658 -0.0993635 0.055453613 -0.3827084
000300 6e 39 f7 3e b5 88 30 be f3 b0 16 be c9 9a 01 bf
       0.48286003 -0.1723965 -0.14715938 -0.5062681
000310 5e f5 ca 3e e8 e6 fe 3d 26 2a ab be e6 c9 62 bd
       0.39640325 0.124463856 -0.33430594 -0.055368327
000320 71 8f 00 bf cb 38 de 3d 75 5e bf 3c 7a 9c ba be
       -0.50218874 0.10850676 0.02336047 -0.36447507
000330 e8 0c 44 3e cc ae 14 3e 82 ac 3c 3d e2 dc d5 be
       0.19145548 0.14519805 0.046062954 -0.41770083
000340 8d 3f ff 3e fe f0 11 bf 51 bb e3 be 10 e5 3f 3c
       0.49853173 -0.5700835 -0.4447885 0.011712328
000350 13 11 23 be 2d 58 fc bd 56 9f 28 be 50 5e 91 3e
       -0.15924482 -0.12321506 -0.16467032 0.28392267
000360 cd f3 ab be 55 d4 e7 bc 64 a7 4b be 5e 0f 91 be
       -0.33584443 -0.02829949 -0.19888073 -0.28332037
000370 a9 47 a9 be 92 86 c9 be 15 37 cf 3e 03 84 58 3e
       -0.33062485 -0.39360482 0.40471712 0.21144108
000380 9d 98 9d bd c3 88 10 3e 54 74 ba 3d 91 b7 c6 be
       -0.07695124 0.1411467 0.09104219 -0.38811925
000390 c3 c6 6e be bf 89 3d 3e 72 15 9e 3e 3e 93 6a bd
       -0.23318009 0.18509577 0.30875736 -0.057269327
0003a0 7f 8d 31 be c9 77 93 bd 95 40 d8 bd bf 92 5e be
       -0.17339133 -0.072005816 -0.10559193 -0.21735667
0003b0 45 d5 1d be 38 31 41 3e fe eb ad 3d bd 4b 7c 3d
       -0.15413387 0.18866432 0.084922776 0.061595667
0003c0 fe 5c 10 3e 86 e6 8a be 76 17 0b be 80 e3 6f be
       0.14097974 -0.27129 -0.13583168 -0.23426628
0003d0 2d e4 81 3e 9d 99 2c be dc f5 8a 3e 7e bf 55 3e
       0.25369397 -0.16855474 0.271407 0.2087383
0003e0 c8 a9 b8 be a4 ab 11 3e 3d da 80 be d5 e8 a8 3e
       -0.36067033 0.14225632 -0.25166503 0.32990137
0003f0 91 a1 dc bd d2 8c 03 3e 09 b2 07 be fd 09 25 be
       -0.10773004 0.12846687 -0.13251509 -0.16117091

conv2d_29.b_0 f4 [10]
000000 84 60 7d bc b3 cd d0 bd d2 11 8c 3d 0d 3c 56 3e
       -0.015464906 -0.10195484 0.068393365 0.20921345
000010 33 b7 31 bd 89 e0 77 3e cc 81 df bd d4 ce 79 bc
       -0.043387603 0.24206747 -0.10913429 -0.015247066
000020 1d 82 08 3e c7 2d aa 3d
       0.13330884 0.083095126
